app/src/main/ml/covid_prediction.tflite (tflite, 34476 bytes, 4 tensors)

sequential_6/dense_12/BiasAdd/ReadVariableOp/resource f4 [512]
00000000: 9e66 03bd e576 40bc 2a91 d6bc 4c27 473c
00000010: 3fae ee3c 7157 d5bc 1be6 733d 2838 013d
00000020: 60f5 05bd 1f7b 043d b955 d7bc b46a 603d
00000030: 6b94 debb d6dd 7d3d 3155 443d f6c4 ca3b
00000040: 1f94 e43c 008f 4d3d fb6e 0b3d f708 363d
00000050: 852b a5bc e988 bdbc ccfd aabc 9a90 9bbc
00000060: a2cb f13c 8a80 5d3d a151 003d b5ca babc
00000070: 6eee 393d 382b fa3c c3dd 703d 4814 ff3c
00000080: 541f ba3a 18a1 9fbc 972d e53c af0e 8e3d
00000090: b9a1 483d df4f 4a3d b50b aa3c 5138 67bc
000000a0: 0892 593d be1a 2b3c 4408 c63c 695b 113d
000000b0: c731 bebc 112e aabc ea6d d93c b3ad 033d
000000c0: 6b25 aabc e8a4 e53b 74bd 94bc 451e c33c
000000d0: ed3d b2bc a4b9 123d ed4a 663c 1175 7c3d
000000e0: 6edd 513d d615 e53c 9f54 0dbd e7d9 d83c
000000f0: c5cb bd3b 0afd c43c 8bf3 e83c 97d0 ea3c
00000100: 09cd 85bc 5616 613d 9f52 6f3d 8fa9 a6bc
00000110: 54b3 60bc f2b1 81bc d47f 5c3d 6595 bcbc
00000120: 1d73 aa3b 616b 253c a7ad 5ebc 039e 7dbc
00000130: 99d3 e93c ba13 a83d effe 85bc 67cb b3bc
00000140: 22c7 a73c b8cd 453d 7f55 293d 0e4c e4bc
00000150: 4c7c 983d 926c b83c 9ba7 843d 258f f8bc
00000160: 9a8c 9fbc 354c 103d bc0c ff3c a6d5 483d
00000170: 4575 243d 8797 233d 1b09 5a3d 0bd7 893d
00000180: 8544 6d3c 013d 6ebc b4d2 99bc 0c23 303d
00000190: eb9c 87bc 2423 ff3c 6891 583d 784b 823d
000001a0: 19aa a3bc 12a0 143d 603f 54bc 8670 a03d
000001b0: b4a7 663c e94c 54bc 24a1 953d eb43 6a3c
000001c0: c049 f7ba 0265 fb3c f574 193d c1d6 ec3c
000001d0: b60e 4f3d c157 173d 9d3a 21bb 8dbe abbc
000001e0: 0d29 d83c d479 8fbc e615 10bd c85c 983d
000001f0: 0bee 173d 675c 7d3d 148e 253d e954 d9bc
00000200: 57cc 7a3c b6db 063d dce5 c3bc 066a d5bb
00000210: f39b 5a3d de85 d93c 5475 8b3d 3d06 3e3d
00000220: aa43 9dbc 2f39 6e3d f01f c63c 9a4c d6bc
00000230: b2f9 313c 0296 123c 9f1f a6bc 98c3 2c3d
00000240: 9936 f53c e71f 2b3d e12a babc 6b3b 80bc
00000250: 77f5 2f3d aa7e e93c 6e96 abbc 141f c43c
00000260: 69b7 4cbc 2bfd aa3b 5e3c 0f3d 6f6a 44bb
00000270: 069a 8a3c 6091 e6bc 6051 0a3d c9b5 323d
00000280: f352 c5bc d102 59bc ec95 293d ebc8 463d
00000290: 8495 fc3c 13af 523d 8c41 a5bc 224a 873d
000002a0: cc2f dabc 2efb d93c 55fd 463d 6433 183c
000002b0: a0a2 d2bc 7460 623d a334 02bd 0304 a4bc
000002c0: 6c9a 2dbc 2104 cabc 313c 7a3d b957 103d
000002d0: 7da5 f63c 80bc 0abc 5d1d 0c3d ec3f 05bd
000002e0: da35 dfbc 66e0 483d 227e 31bc ea0d 8f3c
000002f0: 0f6d 40bc 7e63 97bc 79a2 ff3c 2b99 9abc
00000300: fa4d f7bc 8dbf b9bc bcc5 adbb 85f0 90bc
00000310: 8f7c 02bd e073 683d 0ec8 023d 01aa fe3c
00000320: 3ae0 963d 9962 56bb 735f 03bd 5447 633d
00000330: b44b 1b3d d360 e83c 9394 1a3d de6f 3b3d
00000340: cb9f 3d3d 1a6a 01bb 0a6f 013d 4f25 a0bc
00000350: f110 4f3d f47a 1e3d 793b 8abc 1308 043d
00000360: 224c 9abc 5afd 2f3d 61b5 c4bc 0bb3 e33c
00000370: c412 773c b5b2 e33c 6f4c 5dbc 415f f2bc
00000380: 704b 7fbc a126 98bc 97c9 bdbc d55c 8d3c
00000390: 5b64 56bc dfb3 c4bc 514c 3f3d 9967 8abc
000003a0: 435c 4b3d bd8c 0dbd 148d 233d 7968 273d
000003b0: fc2c 22bc 1c3c 293d 4a8e ffbc bd50 163d
000003c0: 439f e73c 4247 afbc 0a93 793d 8a4e eabc
000003d0: fe12 d4bc 80aa 673d be58 463d 0d06 b13c
000003e0: 11df 4b3d 47a0 313d c048 543d 6ba5 4d3d
000003f0: 5a40 483d c1e0 1d3d 691a 9cbc 1f8b ad3c
-0.032080285 -0.011747097 -0.026192266 0.012155365 0.029135821 -0.026042672 0.059545618 0.031547695
-0.03270471 0.03234398 -0.026285993 0.05478926 -0.006792595 0.061979137 0.047932807 0.0061880304
0.02790266 0.050185204 0.034041386 0.044442143 -0.020162353 -0.023136573 -0.020872973 -0.01898985
0.029516045 0.054077663 0.031327847 -0.022801736 0.0453934 0.030538186 0.05880524 0.0311376
0.001420001 -0.019485995 0.02797584 0.069363944 0.048982356 0.049392577 0.020757535 -0.014112548
0.053117782 0.010443388 0.024173863 0.035487566 -0.023217095 -0.02077392 0.026541669 0.032148074
-0.020769795 0.0070081837 -0.018156745 0.023818145 -0.021758044 0.035821572 0.01405595 0.06163508
0.051236562 0.027964514 -0.03450453 0.026471091 0.0057921135 0.02404644 0.028436443 0.028663917
-0.01633312 0.05495294 0.058428403 -0.020344524 -0.01371463 -0.015831921 0.053832844 -0.023020456
0.005201711 0.010096402 -0.013591207 -0.015479567 0.02854328 0.082068875 -0.016356913 -0.021947576
0.020480696 0.04829189 0.0413413 -0.027868297 0.07445583 0.022512708 0.06477281 -0.030341694
-0.019476224 0.035228927 0.031134002 0.049031876 0.0401509 0.03993943 0.05323134 0.06730469
0.014481668 -0.014540912 -0.018777229 0.043002173 -0.016554317 0.031144686 0.052873045 0.06362051
-0.01997857 0.036285467 -0.012954563 0.07833962 0.0140780695 -0.01295779 0.07306126 0.0142984195
-0.0018866584 0.030687813 0.037465055 0.028910996 0.05055114 0.036948923 -0.0024601587 -0.020964885
0.026386762 -0.017514147 -0.035177134 0.074395716 0.03709225 0.0618557 0.0404187 -0.026529746
0.0153075075 0.032924376 -0.023913316 -0.006512883 0.05337138 0.02655309 0.06809488 0.046392668
-0.019197304 0.058160003 0.02418515 -0.026159573 0.010862755 0.008946897 -0.02027875 0.04217872
0.02993326 0.04177847 -0.022725524 -0.015653333 0.042958703 0.028502781 -0.020945754 0.0239406
-0.0124949 0.0052181683 0.03496968 -0.0029970666 0.016919147 -0.028145492 0.03376901 0.043630395
-0.024087405 -0.0132453 0.041402742 0.048531454 0.030833013 0.051436495 -0.020172857 0.066059366
-0.02663412 0.02660903 0.04858144 0.009289596 -0.025712311 0.055267766 -0.03178848 -0.020021444
-0.010595899 -0.024660172 0.06109256 0.03523991 0.030108208 -0.008467793 0.03420769 -0.032531664
-0.027247358 0.049042128 -0.010833295 0.01746269 -0.011744752 -0.018480059 0.031205403 -0.018871864
-0.03018855 -0.022674346 -0.005303113 -0.017692814 -0.03185707 0.056751132 0.03192907 0.031086924
0.073669866 -0.0032712577 -0.03207345 0.055487946 0.037913993 0.028366482 0.037739348 0.04576098
0.04629497 -0.001974708 0.031600036 -0.01954904 0.050553266 0.038691476 -0.016874062 0.032234263
-0.018835131 0.042966224 -0.02401227 0.027795335 0.015080158 0.027795175 -0.013506993 -0.029586436
-0.015581951 -0.018573107 -0.023167415 0.01725618 -0.01308545 -0.02401155 0.04670364 -0.016895102
0.049648535 -0.034558047 0.039929464 0.040871117 -0.00989842 0.04131709 -0.031195778 0.03669809
0.028274184 -0.021396283 0.060931243 -0.028601903 -0.025887962 0.056559086 0.048424475 0.02160933
0.04977328 0.043365743 0.051827192 0.050206583 0.048889495 0.03854442 -0.019055562 0.021184502

sequential_6/dense_13/BiasAdd/ReadVariableOp/resource f4 [2]
00000000: ccdb 013d cfdb 01bd
0.031703755 -0.031703766

sequential_6/dense_12/MatMul f4 [512, 13]
00000000: 400d 4938 0d2d ddbc d35f 673d 1d3e 043d
00000010: 0460 8b3d 673a e7bd ac6e be3c 308c 953d
00000020: c753 f8bd a67f c0bd 5627 9fbc 24ca b1bd
00000030: 0f11 593d f562 c03b 4611 2abc 2947 c2bd
00000040: 43b2 a5bd c011 06bd 5d86 ff3c 25ae 26bd
00000050: 23c6 9fbd 17f7 05bd 3360 c1bd 3259 afbd
00000060: 0f54 9d3c a991 493d b873 1e3d a29a 44bc
00000070: 9365 0a3e ab74 fa3d af47 b1bd 6eca 563d
00000080: ff77 6f3c 6635 6bbb ce65 1bbd 19d6 303d
00000090: 1b44 883d 7944 9c3c 3fb3 433c 062c 1dbd
000000a0: 8753 8d3d d007 64bd f916 6a3b 5eef e4bd
000000b0: d1a7 893d 8fa9 4e3d 3712 db3d de5d 2d3d
000000c0: 4556 ddbd e85b 6fbd 7741 b1bd b54b ce3d
000000d0: f76d 0abe ed4d 4d3c 131f 1fbd efa0 ae3d
000000e0: ef6b 553d 0c2c 8cbd 515f c8bd 41d7 eebd
000000f0: d34e 723d d1fc 953d 3168 a23d 20bb 95bd
00000100: fc8b 4abd b753 5bbd 689a f0bb d3b3 a7bc
00000110: d3b2 ef3d a570 dbbb d6e6 c1bc 319e c5bc
00000120: eb68 43bd caaa a4bd 1d95 bc3d 3056 263d
00000130: b6b6 62bd 6f4f 1f3d 0f67 a1bd f762 11bd
00000140: 229c 453c c05c 01be 51c9 82bd 319c 0dbd
00000150: e51b 673c 4c4c f93c 8a09 c63c b089 0cbc
00000160: ae62 e2bc 6e1e bc3d 5928 013e a2b1 38bd
00000170: 185c 293d fda3 7ebc f33e a6bd 5ae4 b8bd
00000180: 0271 af3d 3fdf 663d a96d e23d 5aa8 6abc
00000190: 03b4 ed3c 32f3 92bd 9b63 f1bc ae13 d2bc
000001a0: b4f4 003e cece 0fbd 51c0 133e e888 2f3d
000001b0: 0653 9e3d c21d 25bd 6b50 33bc 9017 b43d
000001c0: 40cf 4e3d c1b8 953d 2e5f 80bd bc5e 7a3d
000001d0: c0e9 113d bb95 95bd 63be ea3b ca54 97bd
000001e0: a4d6 ad3d 8d8a dc3d d2ee 3dbc f8e8 9bbd
000001f0: e8a0 a93d 772e 203d 6430 083d b75a 1c3d
00000200: 00fc 5fbd 1d60 b0bd 716d af3d 4d6c 0f3e
00000210: bce1 0b3e fd3b df3d bc8e fdbc 560b 1d3d
00000220: ee29 aa3d bc6b a6bd b691 483d 8502 82bc
00000230: 19e9 d33d 52eb 87bd 0d52 31bd 274d e7bc
00000240: 7f33 bcbd d144 34bd 9e51 ccba 45cb f13c
00000250: fc28 57bd add3 c5bc 7684 18bc ad8a b1bd
00000260: 6447 953d 99a6 383d 7bdd f03d 85cb c9bb
00000270: 45ef abbd 1396 87bd 6164 68bd 60b0 623d
00000280: f904 83bd 3247 8dbd 722b 903b d88c 89bd
00000290: 9fe8 d3bc bbca 81bd c9d6 85bd aece b8bd
000002a0: 966f 8c3d 1a6d d5bd d840 9fbd bb4c 983d
000002b0: b673 fdbd 831e 993b 6df5 28bd 1a3f fb3c
000002c0: 61f7 d6bd 9126 43bd 3cff 843d 5171 1fbc
000002d0: 6670 d83d 863d 863d 47ae c8bd 1252 e6bd
000002e0: b616 0bbe 43d7 f03c 379b d13b 6d1f b33d
000002f0: 4c36 8c3c 3ee6 e93d f444 363d 4a8c 9a3d
00000300: c062 a43c 802b 2d3c 55fd d13d 25a0 fb3d
00000310: 623b 6c3d b822 c23d 5387 b03d 28af ee3c
00000320: 5067 30bc 4b2c acbd 9647 953d 518c 88bd
00000330: 918c 10bc e852 2abd 5a30 2b3d b32f 11bc
00000340: a234 093d 7a92 bcbd 2874 093c a5e7 5d3d
00000350: edd3 553d 8b13 713d 02fc d2bc b335 1ebd
00000360: 943b 533d f37c bd3c 58a8 9cba 0e4d 003c
00000370: f1b9 ce3d 808b e0bd 6660 54bd 25ca 6bbc
00000380: 4404 01be 987d b23d 7f42 103e 6b45 32bd
00000390: b76c 42bd 9f32 503d 0796 29bd fdbe cd3c
000003a0: 1201 bebd e2b2 ca3d e33e bcbd bd7c 503d
000003b0: c231 b5bd 2cbf 333d 5618 57bd ccae b73b
000003c0: 9db9 80bd 207a 85bd 0ece 673b 7e50 ffbd
000003d0: 90c8 013e 7088 953d a2a1 3fbd b75a b1bd
000003e0: 7187 b2bd 94d9 903d 74ee d83d a02d a5bc
000003f0: eb68 b23d 2dab d8bd 0c64 2d3d 56d2 ea3d
4.7934474e-05 -0.026999021 0.05648787 0.0322858 0.06805423 -0.11290436 0.023246132 0.07302129
-0.12125354 -0.09399347 -0.019427937 -0.086811334 0.052994784 0.0058711716 -0.010380095 -0.09486229
-0.08090641 -0.03273177 0.031192 -0.04069342 -0.078014635 -0.032706346 -0.09442177 -0.085619345
0.019205121 0.049211178 0.038684577 -0.011999758 0.1351531 0.12229284 -0.08656251 0.052439146
0.014616012 -0.0035889982 -0.037938885 0.04317293 0.06653615 0.019075619 0.011944591 -0.038372062
0.06900697 -0.055671513 0.003571926 -0.11178468 0.067214616 0.050454672 0.106968336 0.042325847
-0.1080747 -0.058437258 -0.086550646 0.10073034 -0.13518511 0.012530786 -0.038847994 0.085267894
0.052104887 -0.06844339 -0.09783805 -0.1166215 0.059157204 0.073236115 0.07930029 -0.07311082
-0.049449906 -0.053546634 -0.0073426254 -0.020471489 0.1170403 -0.006696778 -0.023669641 -0.024123283
-0.04770748 -0.08040388 0.092081286 0.04060954 -0.055350028 0.038894113 -0.07880985 -0.03549477
0.012061151 -0.12633038 -0.06386054 -0.034572784 0.014105772 0.030431889 0.02417447 -0.008577749
-0.027634945 0.091854915 0.12613048 -0.04509128 0.041347593 -0.015542028 -0.08117475 -0.090279296
0.085664764 0.056365248 0.11056072 -0.014322365 0.0290165 -0.07175292 -0.02946644 -0.02564415
0.12593347 -0.035109334 0.14428832 0.042855173 0.07730679 -0.040311582 -0.010944466 0.08793557
0.050490618 0.0731063 -0.06268154 0.061125502 0.035623312 -0.073039494 0.007163809 -0.07389219
0.08488205 0.10768614 -0.011592584 -0.07612795 0.082826436 0.039106812 0.033249274 0.03817245
-0.054683685 -0.08612082 0.08565796 0.14006157 0.1366033 0.10900114 -0.03095185 0.03834089
0.08308779 -0.081260175 0.048967086 -0.015870342 0.10347194 -0.06636681 -0.04329114 -0.028235031
-0.091895096 -0.04401094 -0.0015588289 0.029515872 -0.05252932 -0.024148786 -0.009308925 -0.086690284
0.07289007 0.045080755 0.11760994 -0.0061582946 -0.083952464 -0.06620421 -0.056736354 0.055343986
-0.06397433 -0.06898345 0.0043997103 -0.06716317 -0.025867758 -0.06337496 -0.06535108 -0.09023796
0.06857221 -0.104212 -0.0777604 0.0743651 -0.12375586 0.0046728267 -0.04124968 0.030669738
-0.104964025 -0.0476442 0.064939946 -0.009731607 0.10568313 0.065547034 -0.09798866 -0.112461224
-0.13582882 0.02939952 0.006396677 0.08746228 0.017115735 0.11420868 0.044499353 0.07546289
0.020066619 0.010569453 0.102533974 0.122864045 0.05767382 0.09479278 0.08619561 0.029136255
-0.010766819 -0.08406886 0.072890446 -0.06667388 -0.008822576 -0.04158297 0.04179416 -0.00886147
0.03349746 -0.09207626 0.00838951 0.05417599 0.05220406 0.05885653 -0.025754932 -0.03862543
0.05157049 0.02313087 -0.0011952026 0.007830871 0.10094059 -0.109641075 -0.051849745 -0.014391457
-0.12599283 0.08715361 0.14087866 -0.043523233 -0.04746696 0.050829526 -0.041402843 0.025115484
-0.09277548 0.098974004 -0.09191682 0.05090021 -0.08847381 0.043883488 -0.052513443 0.005605554
-0.06285403 -0.06517434 0.003537062 -0.124665245 0.12674165 0.07301414 -0.046785004 -0.086598806
-0.0871724 0.0707275 0.10592356 -0.020163357 0.08711418 -0.10579524 0.04233174 0.114659

sequential_6/dense_13/MatMul f4 [2, 512]
00000000: 7bec e3bc 744f 03bd 3905 91bd 2c6f e03d
00000010: 9e19 433c 5570 90bd 7a15 e93d 909c 113e
00000020: 4f1a 1b3d a311 293d 7b49 07be a532 143e
00000030: 2724 823d 2390 ec3d a445 a73d 3fa3 2bbd
00000040: 9e40 aa3d f3c8 093d 2f30 32bc 4210 bf3b
00000050: c704 d5bd b6e2 f4bd b34e 483c 6077 84bd
00000060: 658d 9c3d 6474 043e 930b e33d a6fd 9abd
00000070: 1562 153e c57d b53d 0bd7 903d 12ab d53d
00000080: e531 dabc 5626 5ebc 6cd5 d7bc ab04 013e
00000090: 2efc cb3c aef0 0a3e 1e65 403d fb77 a0bd
000000a0: 2dcf 3b3d 3444 dbbb 36d8 c93b 183f 4f3d
000000b0: c974 373d 477a 44bd 612b 953c 99a3 123e
000000c0: dc3d 95bd ba1b 85bc 811d 97bd b415 d83d
000000d0: 019e ae3c 7119 103e 0cd4 ce3d 9b5f 213e
000000e0: 531c 1f3d 0863 50bd 897a 7cbd 7989 843d
000000f0: 8e47 893d 07d9 68bc 04a4 0d3d 3518 463b
00000100: 407c 99bd 0f6a 043e 36a4 143e a4d2 2abd
00000110: a890 edbd 7345 b1bd 52bb 163e 1f5b 94bd
00000120: ed6d b3bc 33df f13d e430 bbbd 2431 ccbd
00000130: 31d4 b63d 3737 023e 8226 603c 536b 86bd
00000140: 384c 203c 15fc a63d 3ed8 123e 0e01 17bd
00000150: 6ce3 ca3d 844b f43d 1455 d13d c2b7 9f3b
00000160: 7e51 6dbd ab97 063e afb2 dc3d e592 c53d
00000170: ab06 7e3d 1591 043d 0cef 4e3c 1ac4 3dbb
00000180: ce89 283d 41ca b1bd 3847 afbd e214 6b3d
00000190: 4674 7cbd 2740 343c 57a9 2e3d d73a 323e
000001a0: 7868 7bbc 7a02 523c 5afa acbd 1946 bb3b
000001b0: 14d4 593d 2dc0 8b3b b80c 553d f6f9 85bd
000001c0: 07c5 d6bd ca75 45bd 3578 103d b5e1 673d
000001d0: 3f98 2c3d 97e2 42bd 1029 a5bd eb64 ecbc
000001e0: 3314 16bb 706e c9bd 468b 84bd c433 db3c
000001f0: a819 0a3e 7987 183e dfd6 c53a c191 aebd
00000200: 3f88 6f3b 10e1 0e3e 7a31 9c3c 564d 17bd
00000210: db5e 03bd 910a fd3d 5391 3a3e 30a2 333e
00000220: f7b0 103b c06c 123e da43 5e3d 0ba3 f1bd
00000230: 8e3a df3c e307 613d ba8d 0ebd 3019 903c
00000240: 9b2d cb3d b2c4 c93d 81ce 583c 3e56 803d
00000250: 3596 ce3d 21e5 d53d 1311 26bd 3d26 f93c
00000260: eb4d b8bd f99c a73d a9d6 e33d 05df c8bd
00000270: a5e8 dc3c e151 853b 81d5 ee3d d6ed 22bd
00000280: 99ea 66bd f485 c3bd 1803 0a3e ec67 41bc
00000290: 15b8 c13c f4d3 6ebc e631 573d d825 fc3d
000002a0: 923f cebd e8d4 0f3e b2d5 093d 8d8d f23d
000002b0: e1b3 0c3d a764 113e e1aa 92bd df69 863c
000002c0: dec7 803d 0c37 413d d0a6 8e3d a795 9a3d
000002d0: e271 f73d 7934 98bd 829e 023e b9e7 f6bc
000002e0: e168 3b3d c127 10bb 4149 d13b f745 fa3d
000002f0: c369 b93d afd6 bdbd d0d5 c93d eb77 03bc
00000300: 3857 7fbd dd33 07bd 2bd5 e9bd bf1e 07be
00000310: 513d a6bd 193e f33d 4601 57bc d95b 173d
00000320: cdbd 283c 29eb 353c 1103 30bd 0e08 3c3d
00000330: e930 f93d ffe9 5f3c c926 0a3e 71d9 173e
00000340: ce87 603d b2c1 acbd 1548 933d 794b 2dbb
00000350: cfc5 113e 7f85 5a3d d5d0 01bc 54fe f93d
00000360: 7112 8a3a c5c0 053e 4e50 86bd 3cd9 bd3d
00000370: 2656 05bc 0d1b 413d 7813 e9bd 2a0e 77bd
00000380: 09c8 43bd 6eab 92bd a14e aebd 62a8 033d
00000390: 66dc 1dbc aaba a6bd 329b e83d 7264 33bd
000003a0: f624 853d 8fb0 82bd 73bd 193e f1a6 013e
000003b0: b22f 5fbd a991 2a3d 0731 fabd c4a3 d53d
000003c0: 2d37 473c aa28 073d 35d8 293d 50c5 acbc
000003d0: e29e 1fbd 67ac 213e 8e2f 073e 70c0 d63d
000003e0: 2e32 223e f67f c13d 9120 973d ee4d 0f3e
000003f0: a67f 733d 7b80 b23d 7695 c6bd 061f 8db8
-0.027822724 -0.032058194 -0.07081074 0.10958704 0.011907963 -0.07052676 0.113810495 0.1421988
0.037866887 0.041276585 -0.13211624 0.14472444 0.06354552 0.115509294 0.0816758 -0.04190373
0.08313106 0.033638906 -0.010875746 0.0058307955 -0.10401302 -0.11957304 0.012225795 -0.064680815
0.07644156 0.12935024 0.11086192 -0.07567911 0.14588197 0.08861879 0.07072266 0.1043302
-0.02663512 -0.013558945 -0.026346885 0.12599437 0.024900522 0.13568375 0.046971433 -0.078353845
0.045851875 -0.00669148 0.0061598076 0.05059728 0.04478911 -0.047968175 0.018209161 0.1432022
-0.07287189 -0.016248573 -0.07378674 0.105510145 0.021315577 0.14072205 0.100990385 0.15759127
0.03884537 -0.050875694 -0.061640296 0.06471533 0.06703101 -0.0142119 0.034580246 0.003022683
-0.07494402 0.12931083 0.14515767 -0.04170479 -0.115998566 -0.086558245 0.14719895 -0.072439425
-0.021903003 0.1181015 -0.091401845 -0.0997031 0.08927191 0.12716375 0.013681056 -0.06563439
0.009783797 0.081535496 0.14340302 -0.03686624 0.099066585 0.11928466 0.102213055 0.0048742006
-0.057939045 0.13143794 0.10776269 0.096471585 0.062018078 0.032364924 0.012630235 -0.0028955997
0.041147046 -0.08681155 -0.08558506 0.057392962 -0.061634324 0.011001623 0.042641964 0.17405258
-0.0153447315 0.012817973 -0.08446188 0.0057151434 0.05318077 0.0042648525 0.052014083 -0.06541817
-0.10486799 -0.048208036 0.03527089 0.056611735 0.04213738 -0.047579374 -0.08064473 -0.028856715
-0.0022900223 -0.098355174 -0.06471877 0.026758082 0.1348635 0.14895429 0.0015093944 -0.08523894
0.0036549715 0.13953042 0.019066561 -0.036938988 -0.032072883 0.12355531 0.182195 0.17542338
0.0022078136 0.14299297 0.054263927 -0.11798676 0.0272496 0.054939162 -0.03480313 0.017590135
0.09920808 0.0985197 0.013232828 0.062664494 0.100872435 0.104440935 -0.040543627 0.030413741
-0.08999237 0.08184237 0.111249276 -0.098081626 0.026966402 0.0040685986 0.116618164 -0.0397776
-0.056376074 -0.09547034 0.13477743 -0.011804562 0.023647347 -0.014576901 0.05253782 0.123119056
-0.10070719 0.14046061 0.03365106 0.11843405 0.034351233 0.14198552 -0.07161499 0.016407905
0.06288122 0.047171637 0.06965411 0.07548075 0.12082268 -0.07431883 0.12755778 -0.03013979
0.045754317 -0.0021996351 0.0063869064 0.12220376 0.090533756 -0.09269463 0.098552346 -0.008024196
-0.062339038 -0.033008445 -0.11417612 -0.13195322 -0.08117164 0.118770786 -0.013122862 0.036952827
0.010299158 0.01110343 -0.042971674 0.04590612 0.12167532 0.013666629 0.13491358 0.14829041
0.054817013 -0.08435382 0.07191483 -0.002644269 0.14235614 0.053349968 -0.007923325 0.12206712
0.001053406 0.13061817 -0.06558286 0.0926995 -0.008138215 0.04714494 -0.113806665 -0.060316242
-0.04779819 -0.07161604 -0.08511091 0.032143004 -0.009635067 -0.08141072 0.11357726 -0.043796964
0.0650119 -0.06381332 0.15013675 0.1266134 -0.054488845 0.04164282 -0.122163825 0.104316264
0.012159151 0.032997765 0.041465957 -0.02109018 -0.03896988 0.15788423 0.13201734 0.10485923
0.15839455 0.09448235 0.073792584 0.13994572 0.059447907 0.08715912 -0.09696476 -6.7291825e-05
